example_npm/android/app/src/main/assets/need_help_now.onnx (onnx, 710136 bytes, 9 tensors)

layer1.weight f4 [64, 2688]
0	0x3ca8cad5	0.02060453
1	0x3c7987dc	0.015230145
2	0x3d38eb36	0.04514619
3	0x3c62eeca	0.013850877
4	0x3c94040d	0.018068338
5	0x3bd7206d	0.0065651448
6	0x3c9ec243	0.01937974
7	0xbd924215	-0.071415104
8	0xbd369280	-0.044573307
9	0x3c4edb8a	0.012625584
10	0xbbe9927d	-0.0071280585
11	0x3c61a52e	0.013772292
12	0x3ccb98f1	0.024853202
13	0xbbc40149	-0.0059815985
14	0xbd2091cc	-0.039201543
15	0x3c80ec36	0.015737634
16	0x3b8890c7	0.0041676494
17	0xbcf4953c	-0.029856317
18	0x3d9640e2	0.07336594
19	0xbd2a333b	-0.041552763
20	0x3d2dad68	0.0424017
21	0x3c4a514b	0.012348483
22	0xbd6988ae	-0.057015114
23	0xbc1ee92d	-0.009699148
24	0xbb496309	-0.0030729196
25	0x3d9d3337	0.07675784
26	0xbd36ecf7	-0.04465958
27	0x3d1e97a3	0.03871883
28	0x3ceea386	0.029130708
29	0xbcad6f89	-0.021171348
30	0xbd0dd052	-0.034622498
31	0x3d7e1803	0.062034618
32	0xbc81e299	-0.01585512
33	0xbcb93b26	-0.022611212
34	0xbd82706e	-0.063691005
35	0x3c8ba972	0.017048571
36	0x3cd87fef	0.026428191
37	0xbb3891d2	-0.0028163088
38	0xbd45a5b9	-0.04825375
39	0x3be8a1da	0.0070993723
40	0xbc853359	-0.016259836
41	0xbb227240	-0.0024787337
42	0x3c9ad680	0.01890111
43	0xbd900e74	-0.07034007
44	0x3c0927ba	0.008371288
45	0xbd944541	-0.07239772
46	0x3b06e675	0.002058414
47	0x3d40b0ba	0.04704354
48	0x3c602300	0.01368022
49	0x3d08df63	0.033416163
50	0xbd7fc36e	-0.062442236
51	0x3d011b55	0.031520206
52	0x3d5f0841	0.05445123
53	0xbc8f8f1c	-0.017524295
54	0xbd2a364e	-0.041555695
55	0xbd5325a0	-0.051549554
56	0xbd487e29	-0.04894844
57	0xbb479fc2	-0.0030460213
58	0xbd0febb9	-0.035136912
59	0xbd1df7ad	-0.03856628
60	0x3d362376	0.044467412
61	0x3c725580	0.014790893
62	0x3d371150	0.044694245
63	0xbd6b7cc9	-0.05749205
64	0x3c94556d	0.01810714
65	0x3d71c502	0.059025772
66	0xbb05cc2c	-0.0020415885
67	0xbd164389	-0.0366855
68	0xbca1f85d	-0.01977175
69	0xbcaf7fe0	-0.02142328
70	0x3d28d758	0.041220993
71	0x3c5e40f2	0.013565289
72	0xbb9219d7	-0.0044586468
73	0xbd380f08	-0.04493621
74	0x3d99a193	0.07501521
75	0xbc1f4457	-0.009720883
76	0xbc87efb0	-0.016593784
77	0x3d180e7d	0.037123192
78	0xbc71c9c6	-0.014757579
79	0x3b7a16dc	0.0038160598
80	0x3de3415c	0.11096451
81	0x3d119edb	0.035551887
82	0x3b95a2cf	0.0045665274
83	0x3c35e182	0.0111011285
84	0x3d739506	0.05946829
85	0x3be178ec	0.00688087
86	0x3d32bfb8	0.04363987
87	0xbd24a4c2	-0.040196188
88	0x3c393b97	0.011305711
89	0x3ca613a8	0.020273045
90	0x3c9f8f3e	0.019477483
91	0x3d8e550a	0.06949814
92	0x3ca2a71d	0.019855076
93	0xbcc9bb5c	-0.024625473
94	0x3d466133	0.04843254
95	0x3d00038e	0.03125339
96	0xbc0ccf93	-0.008594411
97	0x3c3d558f	0.011556043
98	0x3d35f60c	0.0444241
99	0xbd282f0b	-0.04106049
100	0x3ae1a53b	0.001721538
101	0x3ce7427c	0.028229944
102	0x3d22ac63	0.039715182
103	0xbd58829f	-0.052858945
104	0xbca1d5a1	-0.019755187
105	0x3cdc91d8	0.026925012
106	0xbcaa8de5	-0.020819614
107	0x3bfe223c	0.007755546
108	0x3cca4ad2	0.02469388
109	0xbc67cda8	-0.014148153
110	0xbd4de25b	-0.050264698
111	0x3dacffac	0.08447203
112	0x3bf719e8	0.00754093
113	0xbc27b9d5	-0.010237177
114	0xbbcbe18c	-0.0062219556
115	0xbcb5f09d	-0.02220946
116	0x3c3082b9	0.010773354
117	0x3ca021d3	0.019547379
118	0xbd5aad50	-0.05338794
119	0xbc56ea68	-0.01311741
120	0x3c1d038d	0.009583366
121	0x3d86a156	0.06573741
122	0xbadcbdc0	-0.0016841218
123	0x3db98b53	0.09059777
124	0x3d43d8c4	0.047814146
125	0x3ce2ada8	0.027670696
126	0xbc23f990	-0.010008231
127	0x3d824bb1	0.06362093
128	0xbcc6b01b	-0.024253896
129	0xbc2139e4	-0.009840462
130	0xbcb1a71a	-0.021686126
131	0xbb9fedbc	-0.004880635
132	0x3d064231	0.03277797
133	0x3d52036d	0.0512728
134	0x3d4f8eb3	0.050673198
135	0x3bdfb2d2	0.006826737
136	0xbd5261f3	-0.051362943
137	0x3c45951a	0.012059474
138	0x3ba32bdb	0.004979593
139	0xbd1c3741	-0.03813863
140	0xbc7cdd14	-0.0154335685
141	0xbca71130	-0.020393938
142	0xbd389fde	-0.045074336
143	0x3d519a82	0.05117274
144	0x3d17af4c	0.03703241
145	0x3c11fe93	0.008910793
146	0xbc8bd062	-0.017067138
147	0x3d2cd7ad	0.042197872
148	0x3cc2443b	0.023714175
149	0xbc997c20	-0.018735945
150	0x3afe5ea9	0.0019406873
151	0xbd28fd3c	-0.041257128
152	0xbd767545	-0.06017043
153	0x3c30476d	0.010759217
154	0xbd489f95	-0.048980314
155	0xbd26f2f3	-0.04075904
156	0x3da7a1db	0.08185168
157	0xbcbf6939	-0.023365604
158	0x3d23fbf5	0.040035207
159	0xbd25f45b	-0.04051624
160	0x3c52fd1c	0.012877729
161	0x3d19da0a	0.037561454
162	0x3c2838d8	0.010267459
163	0x3b6f8d33	0.0036552667
164	0xbc55b536	-0.013043692
165	0x3c2ecc2a	0.010668794
166	0x3ca05f17	0.019576592
167	0x3d52a3f0	0.051425874
168	0xbc25e273	-0.0101247905
169	0xbcca53a3	-0.024698084
170	0x3cf28975	0.02960656
171	0x3c04be72	0.008102046
172	0xbc582b56	-0.013193926
173	0x3c950c7a	0.018194426
174	0xbc0c264d	-0.0085540535
175	0xbc103395	-0.008801361
176	0x3c3f5033	0.011676836
177	0x3cc23134	0.023705103
178	0x3c49739a	0.012295628
179	0xba6a3a84	-0.0008935111
180	0x3da33926	0.079698846
181	0x3dae59e6	0.085132405
182	0x3dc1a31d	0.094549395
183	0xbc7f9bc6	-0.015601104
184	0x3cbab302	0.022790436
185	0x3c914bcc	0.017736338
186	0x3bd71da6	0.0065648137
187	0x3d57e344	0.05270697
188	0x3cf9fe9a	0.030516911
189	0xbc470a4c	-0.012148451
190	0x3cc850fa	0.024452675
191	0x3d228ca4	0.039684907
192	0xbc812988	-0.015766874
193	0x3c266b48	0.010157414
194	0x3d3d4107	0.046204593
195	0x3d4509c9	0.048105035
196	0x3cae947f	0.021311043
197	0x3c8db131	0.017296406
198	0x3d03e544	0.032201067
199	0xbc5a3a17	-0.013319514
200	0x3ab53df3	0.0013827666
201	0x3cc6696f	0.024220197
202	0xbad13f4e	-0.0015964301
203	0xbcce495b	-0.025181463
204	0x3c88fe9c	0.01672297
205	0xbc89c05c	-0.016815357
206	0xbceb832c	-0.028749071
207	0x3cd67f0f	0.026183633
208	0xbd1d3dd8	-0.038389057
209	0x3bffaeb1	0.0078028073
210	0x3c397027	0.011318243
211	0xbcd4c9db	-0.025975158
212	0xbc235359	-0.009968602
213	0x3c1e7591	0.009671585
214	0xbd49f1d3	-0.049302887
215	0xbcf873a3	-0.030328577
216	0x3c56d9ea	0.013113478
217	0x3d7509bf	0.059823748
218	0xbb7e39e6	-0.0038791834
219	0x3d5db1d9	0.054124687
220	0x3d814405	0.06311802
221	0x3cf31478	0.029672846
222	0xbc927caf	-0.01788172
223	0x3b9725ba	0.0046126517
224	0xbc019157	-0.007908187
225	0xbc197477	-0.009366146
226	0xbd3e4ef6	-0.04646202
227	0x3c3e620e	0.011620058
228	0x3c25f7ba	0.010129863
229	0x3ca1d79c	0.01975613
230	0x3d7cce62	0.06172026
231	0x3cab887a	0.0209391
232	0xbd44d52e	-0.048054866
233	0x3af3ecf3	0.0018610045
234	0x3c6f57bd	0.014608321
235	0xbc95b65c	-0.018275432
236	0xbd014cbe	-0.031567328
237	0xbd19208c	-0.037384555
238	0xbcb473ec	-0.022027932
239	0x3d725811	0.059166018
240	0x3d098765	0.033576388
241	0xbb3fa81e	-0.0029244493
242	0xbd1b327d	-0.037889946
243	0x3d08b7f0	0.03337854
244	0x3c102a42	0.008799138
245	0x3a141b9f	0.0005649868
246	0xbae7c6f0	-0.0017683189
247	0xbcbb4782	-0.022861246
248	0xbcbc2b37	-0.022969825
249	0x3cf18c31	0.029485794
250	0xbb51c8d7	-0.003201058
251	0xbd1144bf	-0.035465952
252	0x3b6bdf61	0.0035991299
253	0x3cda461e	0.026644763
254	0x3c9c1f8c	0.019058011
255	0xbd34d4cb	-0.044148248

layer1.bias f4 [64]
0	0xbc8d6d65	-0.017264077
1	0xbbe5450f	-0.006996758
2	0x3d82bf92	0.063841954
3	0x3d0b372d	0.033988167
4	0x3bdf3189	0.006811325
5	0x3c866eed	0.016410315
6	0x3d433c91	0.047665183
7	0x3d87f12e	0.06637798
8	0x3d0e1663	0.03468932
9	0x3c4929d2	0.012278037
10	0x3b0abb07	0.0021168606
11	0x3d48c841	0.049019102
12	0x3bc6c641	0.006066114
13	0xbc01bb76	-0.007918229
14	0x3bfc63b2	0.0077023143
15	0x3bfe7230	0.007765077
16	0x3c92f862	0.017940704
17	0x3d56e8e1	0.052468184
18	0x3c261bf1	0.010138498
19	0x3b7cbff6	0.0038566566
20	0xbb07e184	-0.0020733783
21	0x3cf8ced1	0.030372055
22	0xbb395dd2	-0.002828468
23	0x3d86099c	0.065448016
24	0xbb05a077	-0.0020389834
25	0xbc77f9b7	-0.01513522
26	0x3d45f2ab	0.04832713
27	0x3d8a3203	0.0674782
28	0xba160580	-0.00057228655
29	0x3d78ce2f	0.060743507
30	0x3d628894	0.055306032
31	0x3d456626	0.04819312
32	0x3d07e089	0.033173118
33	0xbc59c36b	-0.01329122
34	0xbca592f9	-0.020211684
35	0x3c920a46	0.017827164
36	0x3d4463ef	0.047946867
37	0x3c355710	0.011068121
38	0xbc0f161e	-0.0087333005
39	0xbb13e9a6	-0.0022569685
40	0x3d2a40e3	0.041565787
41	0x3d3dd4df	0.046345588
42	0xbbf07854	-0.007338563
43	0x3d176611	0.036962572
44	0x3c15bfcf	0.009139969
45	0x3cb74a5e	0.022374328
46	0x3c8077f7	0.015682204
47	0x3c1a9e8c	0.009437215
48	0x3c7310a2	0.014835509
49	0x39e5f3ef	0.00043860028
50	0x3d4d15f8	0.05006978
51	0x3cec87aa	0.028873283
52	0x3c336b39	0.010950857
53	0x3cc5d630	0.024149984
54	0x3d7a6b11	0.061137263
55	0x3b41c5a9	0.0029567278
56	0x3d357cf0	0.044308603
57	0x3d5e3fd0	0.054260075
58	0x3c58f3db	0.013241733
59	0x3bf63f15	0.007514844
60	0xbb67897a	-0.0035329745
61	0x3d86a584	0.06574538
62	0x3cc91c40	0.024549603
63	0x3c8dc6b5	0.017306665

layernorm1.weight f4 [64]
0	0x3f7d4c84	0.9894488
1	0x3f90b9ba	1.1306679
2	0x3f7f96ce	0.99839485
3	0x3f81e0e5	1.0146757
4	0x3f782eaf	0.96946234
5	0x3f8f28e9	1.118436
6	0x3f7bd7bc	0.9837606
7	0x3f93d67a	1.1549828
8	0x3f6d9416	0.92804086
9	0x3f80f91a	1.007602
10	0x3f859104	1.043488
11	0x3f7ec9bf	0.9952659
12	0x3f7d9ab8	0.9906421
13	0x3f6703a6	0.9023994
14	0x3f842ef3	1.0326828
15	0x3f6b21ad	0.9184826
16	0x3f7bb621	0.9832478
17	0x3f834cd2	1.0257819
18	0x3f82119a	1.0161622
19	0x3f84db11	1.0379354
20	0x3f809769	1.0046207
21	0x3f698ecb	0.9123351
22	0x3f8fa846	1.1223228
23	0x3f92fed9	1.1484023
24	0x3f84fc77	1.0389546
25	0x3f813703	1.0094913
26	0x3f8b0ef3	1.0863937
27	0x3f966a02	1.1751101
28	0x3f7ccfd3	0.98754615
29	0x3f967f0f	1.1757525
30	0x3f7f1a8f	0.996499
31	0x3f98032b	1.1875967
32	0x3f8cfd1b	1.1014742
33	0x3f80373d	1.0016857
34	0x3f9362f3	1.1514572
35	0x3f98c47f	1.1934966
36	0x3f8928b7	1.071555
37	0x3f8861ef	1.0654887
38	0x3f82a805	1.0207525
39	0x3f8c8019	1.0976592
40	0x3f87627d	1.0576931
41	0x3f4c9f4b	0.7993056
42	0x3f85ad5c	1.044353
43	0x3f8b72b4	1.089438
44	0x3f817132	1.011267
45	0x3f80d014	1.00635
46	0x3f8b7733	1.0895752
47	0x3f813b20	1.0096169
48	0x3f767b5f	0.96282
49	0x3f691807	0.9105229
50	0x3f7e8a75	0.9943002
51	0x3f6e9e7f	0.93210596
52	0x3f601c19	0.87542874
53	0x3f6a78c4	0.91590524
54	0x3f97bbc1	1.1854173
55	0x3f7c50bf	0.9856071
56	0x3f939e70	1.1532726
57	0x3f74c89a	0.95618594
58	0x3f7b72fb	0.9822232
59	0x3f7563e6	0.9585556
60	0x3f803b96	1.0018184
61	0x3f6f2c8d	0.93427354
62	0x3f80f9f3	1.0076278
63	0x3f827c2d	1.0194145

layernorm1.bias f4 [64]
0	0xbacf9142	-0.0015836137
1	0x3c84a2a3	0.016190832
2	0xbbf6ba07	-0.0075295004
3	0xbb1153dc	-0.0022175228
4	0xbd10bd0f	-0.03533655
5	0xbc89e090	-0.016830713
6	0xba684e93	-0.0008861806
7	0x3c522431	0.0128260115
8	0xbd23147a	-0.03981445
9	0xbc6e0065	-0.014526461
10	0xbad2078d	-0.0016023979
11	0xbcba34ca	-0.02273025
12	0xbc628e1c	-0.013827827
13	0xbd8efa69	-0.06981356
14	0xbc0a5a08	-0.008444317
15	0xbd80cdd0	-0.062892556
16	0xbc423ff0	-0.011856064
17	0xbbeeebaa	-0.007291277
18	0xbc87ab9a	-0.016561318
19	0xbc57c001	-0.013168336
20	0x3a8b748a	0.001063959
21	0xbd892027	-0.06695586
22	0x3c2b56a8	0.010457672
23	0x3a97c66e	0.0011579522
24	0xbbb827d5	-0.0056199827
25	0xbd27fd3f	-0.041013
26	0x3b4a44d4	0.0030863779
27	0x3c63b68b	0.013898502
28	0xbc92be59	-0.01791303
29	0xbaf9d1d0	-0.0019059721
30	0xbba558b3	-0.005045974
31	0xbb8baee1	-0.0042627905
32	0xbcaa20d6	-0.02076761
33	0xbc9e2cc6	-0.019308459
34	0xbcb18d2b	-0.02167376
35	0xbb715e0f	-0.0036829745
36	0xbc0d619c	-0.008629229
37	0x3c9a3f25	0.018828938
38	0xbc27cee5	-0.010242199
39	0x3c1d3a9c	0.009596493
40	0xbc406b0e	-0.011744274
41	0xbdff9a08	-0.12480551
42	0x3be13651	0.00687293
43	0xbbeb2739	-0.0071763066
44	0xbc80d448	-0.015726224
45	0xbad2d537	-0.0016085271
46	0xbd8b15de	-0.0679128
47	0xbc86d822	-0.016460482
48	0xbddc5203	-0.1075783
49	0xbdb8de6b	-0.09026798
50	0x3b9f53fa	0.0048623057
51	0xbd29ffac	-0.041503593
52	0xbe04d6a4	-0.12972504
53	0xbd21f3e9	-0.03953925
54	0xbce78b9a	-0.02826481
55	0xbc264b58	-0.010149799
56	0xbc689a8a	-0.014197001
57	0xbcbbf6f6	-0.022944909
58	0xbcfe7388	-0.031060949
59	0xbd0d9eaa	-0.034575142
60	0xbab9c72e	-0.001417374
61	0xbce5c063	-0.028045839
62	0x3c9e00eb	0.019287547
63	0xbcb23315	-0.021752873

blocks.0.fcn_layer.weight f4 [64, 64]
0	0xbe03cddd	-0.128715
1	0xbd8f12e3	-0.06986024
2	0x3af21875	0.0018470424
3	0x3da28753	0.07935967
4	0x3d8fe5af	0.070262305
5	0xbe1d8b4a	-0.15385166
6	0xbd95037d	-0.07276056
7	0x3e863980	0.26215744
8	0xbd9c131e	-0.07620834
9	0x3d49d6fe	0.0492773
10	0xbe09f248	-0.13471329
11	0xbd2632ce	-0.040575795
12	0xbb43932f	-0.0029842367
13	0xbda67e98	-0.081296146
14	0x3c5cda5f	0.013479798
15	0xbc83d5c3	-0.01609314
16	0x3d62fe2d	0.055418182
17	0x3ce4c899	0.027927684
18	0xbd7470dd	-0.059677947
19	0xbda261f8	-0.07928842
20	0xbded13e4	-0.115760595
21	0x3dbca452	0.09211029
22	0xbe27ca2e	-0.16385719
23	0x3e6b1e8a	0.22960868
24	0xbe075fa0	-0.13220072
25	0x3be65979	0.007029709
26	0x3e4a36d6	0.19747481
27	0x3e800cd4	0.25009787
28	0xbdd2f957	-0.10301464
29	0x3e7dfdbe	0.24803826
30	0x3d360157	0.04443487
31	0x3dbf96b9	0.0935492
32	0x3e607fc3	0.21923737
33	0xbdae240b	-0.085029684
34	0xbe22760b	-0.15865342
35	0xbe364bc0	-0.17802334
36	0x3e0da46d	0.13832255
37	0xbe1788b0	-0.14798236
38	0xbe49c571	-0.19704224
39	0xbd8bf078	-0.06832975
40	0x3d8a0292	0.067387715
41	0x3d8d4320	0.06897569
42	0xbe1230a9	-0.14276375
43	0x3dfc46e2	0.12318207
44	0xbdfe63f4	-0.12421408
45	0xbe12aec5	-0.14324482
46	0xbc12a37c	-0.0089501105
47	0xbe1e1ddb	-0.15441076
48	0xbc85910f	-0.01630452
49	0x3d8d2586	0.06891923
50	0x3e184d09	0.14873137
51	0x3d2f8c27	0.04285827
52	0x3d996173	0.0748929
53	0x3d1521ff	0.036409374
54	0x3e7df77d	0.2480144
55	0xbddc7887	-0.10765176
56	0x3e165c75	0.14683707
57	0x3dc2ff11	0.09521306
58	0xbdadec0b	-0.08492287
59	0xbd13119c	-0.035905465
60	0xbce39dda	-0.02778523
61	0xbd27dfde	-0.04098498
62	0xbc839f53	-0.016067183
63	0xbdd5bfa3	-0.104369424
64	0xbdd959e1	-0.10612846
65	0xbe4700ad	-0.19433852
66	0x3c5dcba7	0.013537324
67	0xbd7ea956	-0.06217321
68	0xbdfde953	-0.12398019
69	0xbe5e9fa8	-0.21740592
70	0xbd8b3871	-0.06797875
71	0x3e06e25c	0.13172287
72	0x3c7a5339	0.015278631
73	0xbd3aed29	-0.04563633
74	0x3c8571ae	0.016289558
75	0x3e036ccc	0.12834471
76	0xbde1c7a6	-0.11024408
77	0xbd2d0469	-0.042240534
78	0x3c842ff9	0.016136156
79	0xbd97de70	-0.074154735
80	0x3c51d8c1	0.012808026
81	0x3d4bbced	0.04974072
82	0xbbd74627	-0.006569642
83	0xbc6d1301	-0.014469863
84	0x3a7271f9	0.00092485506
85	0xbc2a626f	-0.010399445
86	0xbd9c44be	-0.07630299
87	0x3e84bd4d	0.25925675
88	0xbcdf7181	-0.027275803
89	0xbe067f56	-0.13134512
90	0x3db8854d	0.090098
91	0x3e538fd9	0.20660342
92	0xbe15deb7	-0.1463574
93	0x3e81de8b	0.253651
94	0x3d8169d9	0.06319017
95	0x3e2e5cc1	0.1702757
96	0x3e3ebe67	0.1862732
97	0xbc4f9f57	-0.012672267
98	0xbe7f7eb2	-0.24950674
99	0xbe1a0feb	-0.15045135
100	0x3d71cb8f	0.05903202
101	0x3b6759bc	0.0035301289
102	0xbb881c88	-0.004153792
103	0xbddbf2b9	-0.10739655
104	0x3e1dd30c	0.15412539
105	0x3c2df6cb	0.010617922
106	0xbe0e416e	-0.13892147
107	0x3e0a31e2	0.13495591
108	0xbdcd8b83	-0.100363754
109	0x3c964b41	0.01834643
110	0xbdc35952	-0.09538521
111	0xbe0de127	-0.1385542
112	0xbcb3dcdc	-0.0219559
113	0xbbaff2a0	-0.0053694993
114	0x3df6642e	0.120308265
115	0x3c0cac27	0.008585966
116	0x3d13bc98	0.03606853
117	0x3c856efc	0.016288273
118	0x3e31f955	0.17380269
119	0xbddbd195	-0.10733334
120	0x3e1a63b8	0.15077102
121	0x3cfe33f8	0.03103064
122	0xbd3b8e08	-0.04578975
123	0x3d92f2ff	0.07175254
124	0x3d21aa29	0.039468918
125	0x3dff6328	0.124700844
126	0xbdccf243	-0.10007145
127	0xbe1abbda	-0.15110722
128	0x3d323e6c	0.04351656
129	0x3e539d48	0.20665467
130	0x3d8083b1	0.06275118
131	0xbd76b24d	-0.060228635
132	0x3db0f11d	0.08639739
133	0xbb882e8d	-0.00415594
134	0x3cd054e3	0.025431102
135	0xbcdcee19	-0.026969003
136	0x3be4ba37	0.0069802064
137	0x3dfc64a7	0.123238854
138	0x3e2b701f	0.1674199
139	0x3d5941d3	0.05304129
140	0x3cb25175	0.021767357
141	0x3b82a27d	0.0039866553
142	0x3cc79ab7	0.024365766
143	0x3d7ee5df	0.06223094
144	0x3d3d1574	0.046163037
145	0x3be05e16	0.0068471534
146	0x3d6efbce	0.05834561
147	0x3bcc4586	0.006233874
148	0x3bc08c11	0.005876072
149	0x3c832d02	0.016012672
150	0x3dc26886	0.094925925
151	0xbdc1a6e2	-0.094556585
152	0x3dd73d44	0.10509732
153	0x3e164eb4	0.1467846
154	0xbdeb3301	-0.114843376
155	0xbdf78cdb	-0.12087413
156	0x3d47d8b4	0.04879065
157	0xbddb68e7	-0.10713368
158	0xbc9d48e5	-0.019199798
159	0xbe0f97d2	-0.14022759
160	0xbdb0e280	-0.086369514
161	0x3d91a0de	0.07110761
162	0x3dd4cc76	0.1039056
163	0x3e103d27	0.14085828
164	0xbd951eaf	-0.07281243
165	0x3e263158	0.1622976
166	0x3d7a7a31	0.061151687
167	0x3dd3542c	0.10318789
168	0xbd746003	-0.059661876
169	0xbca4df7c	-0.020126097
170	0xbbf2761f	-0.007399335
171	0xbd916628	-0.07099563
172	0x3d3a6f67	0.045516398
173	0x3d2fff4e	0.042968087
174	0x3d5168e8	0.051125437
175	0x3cb7058c	0.022341512
176	0x3e03e645	0.1288081
177	0x3d2b1855	0.04177125
178	0xbd6424b2	-0.055699058
179	0x3dae9594	0.085246235
180	0x3bb68a4e	0.0055706864
181	0xbbae0558	-0.0053106956
182	0xbe1c2f97	-0.15252529
183	0x3dd89b17	0.10576456
184	0xbd922d66	-0.07137565
185	0xbba2443d	-0.0049519823
186	0x3d9701d9	0.07373399
187	0xbd23a613	-0.039953303
188	0x3d628a6f	0.0553078
189	0xbae35f36	-0.0017347101
190	0x3dc180e4	0.09448412
191	0x3e1d0770	0.15334868
192	0x3e0ced18	0.13762319
193	0x3e8152f3	0.25258598
194	0xbdb0c4e1	-0.08631302
195	0x3d50eaa3	0.051005017
196	0x3db638ae	0.088975295
197	0x3d10d329	0.035357628
198	0xbd94d2c6	-0.07266764
199	0xbda71dff	-0.08160018
200	0xbd1086cb	-0.0352848
201	0x3df82739	0.12116856
202	0x3e80def1	0.2517009
203	0x3dd621f4	0.10455695
204	0x3db4be7b	0.08825394
205	0x3d319d25	0.043362755
206	0x3e4e5915	0.2015117
207	0x3e0c8006	0.13720712
208	0x3dc7756d	0.09739194
209	0x3d8a82f1	0.06763256
210	0x3e527a7b	0.20554535
211	0x3d68d76d	0.05684607
212	0x3d09f284	0.033678547
213	0xbd8ef58f	-0.0698043
214	0x3dc35217	0.09537142
215	0xbdb6a8a5	-0.08918885
216	0x3e35e433	0.17762832
217	0x3d4be3d2	0.049777813
218	0xbd94efd4	-0.07272306
219	0xbd88ec71	-0.066857226
220	0x3e2f86a6	0.17141208
221	0xbd9244ee	-0.071420535
222	0xbe0892e1	-0.1333728
223	0xbdd76c5f	-0.10518717
224	0xbd268a06	-0.040658973
225	0x3dea876b	0.1145161
226	0x3dac311a	0.08407803
227	0x3dbc2209	0.09186179
228	0xbdc548c3	-0.09633019
229	0x3ce334ce	0.02773514
230	0x3d915eea	0.070981815
231	0x3e29226d	0.16517039
232	0xbe197ede	-0.14989802
233	0xbbee5400	-0.007273197
234	0x3ddc2bbc	0.10750529
235	0xbd1b0b82	-0.03785277
236	0x3dd95d98	0.10613555
237	0xbbc8ac45	-0.0061240518
238	0x3dbc9971	0.09208954
239	0x3e462cb2	0.19352987
240	0xbd84fb53	-0.06493249
241	0x3e27bc34	0.16380388
242	0xba1db7c2	-0.0006016457
243	0x3d5d0740	0.053961992
244	0x3da2b250	0.07944167
245	0xbd42f09b	-0.04759274
246	0xbdd5bf4f	-0.1043688
247	0x3dedc328	0.11609489
248	0xbe338031	-0.1752937
249	0x3dec314d	0.11532841
250	0x3dfa558c	0.12223348
251	0x3e2ff60c	0.17183703
252	0x3e11c68a	0.14235893
253	0x3c808075	0.015686253
254	0x3d830933	0.06398239
255	0x3dd892cd	0.10574875

blocks.0.fcn_layer.bias f4 [64]
0	0x3d2e7ede	0.04260146
1	0x3a899d96	0.0010499235
2	0x3e1d9700	0.15389633
3	0x3d872e6c	0.06600651
4	0xbdb4b563	-0.08823659
5	0x3ddf5c4f	0.10906278
6	0xbda4d1e9	-0.0804785
7	0x3d7f1ca1	0.062283162
8	0xbd944dfe	-0.07241438
9	0x3d2b5d97	0.0418373
10	0xbda42dba	-0.08016534
11	0x3d312b18	0.043253988
12	0xbd187aaf	-0.037226375
13	0x3b1e6665	0.0024169919
14	0xbceae540	-0.028673768
15	0xbd0feee0	-0.03513992
16	0xbb6f0974	-0.003647414
17	0xbd2cd7ef	-0.042198118
18	0xbdb0848b	-0.086190306
19	0xbc64a9bb	-0.0139564825
20	0xbd96b74a	-0.07359178
21	0x3de2065f	0.110363714
22	0x3dbf5ef1	0.093442805
23	0x3e1c5beb	0.15269439
24	0xbd6a5b22	-0.057215817
25	0x3d182cf6	0.037152253
26	0xbd036e59	-0.032087658
27	0x3db4ae27	0.088222794
28	0x3d040bd2	0.032237835
29	0xbd497b8a	-0.04919008
30	0x3d532fa7	0.051559117
31	0x3dc3d9fa	0.0956306
32	0xbd498b20	-0.049204946
33	0x3d6b257e	0.057408802
34	0xbd665d1d	-0.056241143
35	0x3d70dec3	0.058806192
36	0xbd3f5deb	-0.046720427
37	0x3e1895b6	0.1490086
38	0xbc6dd9b8	-0.01451724
39	0xbd2eec84	-0.042706028
40	0x3d9c8bbc	0.0764384
41	0x3d7b88e5	0.06140985
42	0x3d0cac54	0.034344032
43	0xbdc4b65b	-0.09605094
44	0x3cea6481	0.028612377
45	0xbd87f1b9	-0.06637902
46	0x3dd46491	0.10370744
47	0x3db9702e	0.090546
48	0x3d93f72d	0.072248794
49	0x3df3e7af	0.119094245
50	0xbdb11630	-0.0864681
51	0x3cb88cb5	0.022528032
52	0xbe043fa6	-0.12914905
53	0xbd8ef0f9	-0.06979556
54	0xbcd74dd6	-0.026282232
55	0x3db971a6	0.0905488
56	0x3c8df72a	0.017329771
57	0x3bf29565	0.007403063
58	0xbd4744f3	-0.04864974
59	0xbdf9ce5b	-0.12197562
60	0xbdf7e73d	-0.12104652
61	0xbda17844	-0.07884267
62	0xbd625fb2	-0.055267043
63	0x3d6826d2	0.056677647

blocks.0.layer_norm.weight f4 [64]
0	0x3fa242ba	1.2676613
1	0x3f9436f5	1.1579272
2	0x3f969cc1	1.1766587
3	0x3fa54c02	1.2913821
4	0x3f98d09a	1.193866
5	0x3fa600ff	1.2969054
6	0x3f99f814	1.2028832
7	0x3fa49d13	1.2860435
8	0x3f86b102	1.0522768
9	0x3f96343f	1.1734694
10	0x3f9fa407	1.2471932
11	0x3f9e47af	1.2365626
12	0x3faa3ce4	1.3299832
13	0x3f8c15b4	1.0944123
14	0x3fa92d1d	1.3216892
15	0x3f9fbcde	1.2479513
16	0x3fa14fbc	1.2602458
17	0x3f9b70d0	1.2143803
18	0x3f913bdd	1.1346394
19	0x3f7b7583	0.98226184
20	0x3f943781	1.1579438
21	0x3fa0a308	1.2549753
22	0x3fa55d50	1.2919102
23	0x3f9b5250	1.2134495
24	0x3f6d876b	0.92784756
25	0x3fa497eb	1.2858862
26	0x3fa9170c	1.3210158
27	0x3f8c5cea	1.0965855
28	0x3f9eb3ed	1.2398659
29	0x3fa04ef3	1.2524093
30	0x3f8cd37f	1.1002043
31	0x3fa4dbfe	1.2879636
32	0x3f9262fe	1.143646
33	0x3fa6ce87	1.3031777
34	0x3f84693d	1.0344616
35	0x3fa48d01	1.2855531
36	0x3f93efad	1.1557518
37	0x3f89de49	1.0770961
38	0x3f784e34	0.9699433
39	0x3f9aee63	1.2104
40	0x3f83628f	1.0264453
41	0x3f855a04	1.0418096
42	0x3f9c5cf5	1.2215868
43	0x3fa59294	1.2935357
44	0x3f923904	1.142365
45	0x3f7de6a6	0.99180067
46	0x3f7b4494	0.98151517
47	0x3f9f4c33	1.2445129
48	0x3f687bc0	0.9081383
49	0x3f8fead1	1.1243535
50	0x3fa517c4	1.2897878
51	0x3fa60846	1.2971275
52	0x3f9b6b25	1.2142073
53	0x3fa6af98	1.3022337
54	0x3f9d0d3e	1.2269666
55	0x3fa0b6eb	1.2555822
56	0x3fb05c42	1.3778155
57	0x3f9f49eb	1.2444433
58	0x3f707046	0.93921316
59	0x3fa754a3	1.3072704
60	0x3fa061df	1.2529868
61	0x3f897b5d	1.0740772
62	0x3f9fe817	1.2492703
63	0x3fae39b1	1.3611356

blocks.0.layer_norm.bias f4 [64]
0	0x3e11f14f	0.14252208
1	0x3df58d38	0.11989826
2	0x3ce4405f	0.027862726
3	0x3d7e4517	0.062077608
4	0x3da3b1a5	0.079928674
5	0x3cd8aa0a	0.026448268
6	0x3d57ff5a	0.052733757
7	0x3e0cb044	0.13739115
8	0x3da27560	0.07932544
9	0x3dd73aa4	0.10509232
10	0x3e0caa8e	0.13736936
11	0xbbce0272	-0.0062869126
12	0x3e22340d	0.15840168
13	0x3e0f7dc7	0.14012824
14	0x3df3f770	0.11912429
15	0x3daf5e72	0.08562936
16	0x3dc2c3de	0.09510015
17	0x3e029bc6	0.12754735
18	0x3a2373ab	0.00062351924
19	0xbc5794c2	-0.013158025
20	0x3de4eb64	0.1117771
21	0x3dd765c3	0.105174564
22	0x3c3a8c83	0.01138604
23	0x3e153681	0.14571573
24	0xbdac6bc3	-0.084189914
25	0x3e2cbd5a	0.16869107
26	0x3dee5043	0.116364025
27	0x3db6971a	0.08915539
28	0x3df8dfd3	0.12152066
29	0x3dff2fee	0.12460314
30	0x3e0446c5	0.12917621
31	0x3e04cd0f	0.12968849
32	0xbcd81fcd	-0.026382351
33	0x3d905acb	0.070485674
34	0x3cdf6cdb	0.027273586
35	0x3dcbb0b3	0.09945812
36	0x3e0f57cf	0.1399834
37	0x3dda4f1b	0.106596194
38	0xbd8ccb69	-0.06874735
39	0x3df4068d	0.11915312
40	0xbb29429a	-0.002582705
41	0x3e2155e4	0.15755421
42	0x3e08feb7	0.13378416
43	0x3dfafd38	0.12255329
44	0xbd9550a1	-0.07290769
45	0xbc95826c	-0.018250667
46	0xbd8c0546	-0.06836943
47	0x3dfec391	0.12439645
48	0xbe09f50c	-0.13472384
49	0x3dc02897	0.09382742
50	0x3e06c46a	0.13160864
51	0x3dc21510	0.094766736
52	0x3d845519	0.064615436
53	0x3db928fe	0.09041022
54	0x3d9016ff	0.07035636
55	0xbc9e4809	-0.019321458
56	0x3e0ce9ed	0.1376111
57	0x3df91a1b	0.12163182
58	0xbd9bba90	-0.07603943
59	0x3d7b800e	0.06140142
60	0x3d51399a	0.051080324
61	0x3dd91352	0.10599388
62	0x3d1ad846	0.03780391
63	0x3d68b5d4	0.05681403

last_layer.weight f4 [1, 64]
0	0xbea2a78a	-0.31768447
1	0xbe5fe705	-0.2186547
2	0x3e54b2bd	0.20771308
3	0x3ea3645e	0.31912512
4	0x3e98625c	0.29762542
5	0x3ea94ced	0.33066502
6	0x3e50fc71	0.20408799
7	0x3eb65bf4	0.3561703
8	0xbe0e0fa7	-0.13873158
9	0xbe82e626	-0.25566214
10	0x3ead0e81	0.33800128
11	0x3e8344c5	0.25638404
12	0x3ed81530	0.42203665
13	0x3e114cd1	0.1418946
14	0x3ebacb3f	0.3648319
15	0x3ea65fc4	0.32494938
16	0x3eb061f9	0.34449747
17	0xbe8ba581	-0.27274707
18	0x3e0f2497	0.13978802
19	0x3dbcdc22	0.092216745
20	0xbe8d0462	-0.27542406
21	0x3eb2550e	0.34830517
22	0x3e9238aa	0.28558856
23	0xbe76b9d0	-0.2409432
24	0x3d51526b	0.05110399
25	0x3ea06c88	0.31332803
26	0x3eb47d8e	0.3525204
27	0x3e0daf7b	0.13836472
28	0xbe8f8fd6	-0.28039426
29	0x3e786b61	0.24259712
30	0xbdfdbed8	-0.12389916
31	0xbeb035e6	-0.3441612
32	0x3e07b3ba	0.13252154
33	0x3e8bcb8c	0.2730373
34	0x3dc4cd9d	0.0960953
35	0x3e9cb8eb	0.3060983
36	0xbe84309d	-0.2581834
37	0x3de24769	0.11048777
38	0x3d84db43	0.06487133
39	0xbe9be7d9	-0.30450323
40	0x3dec69d9	0.11543626
41	0x3db4ce8c	0.08828458
42	0xbe9cf47f	-0.30655286
43	0xbeb4c5d3	-0.35307178
44	0x3e4580de	0.1928744
45	0x3db334ef	0.08750331
46	0x3d9aa155	0.07550303
47	0x3e849ce4	0.25900948
48	0xb9ce2082	-0.00039315602
49	0xbe4ba123	-0.19885688
50	0x3ecd6213	0.40113887
51	0x3ece0c94	0.4024397
52	0x3e657ef7	0.22411714
53	0x3e94e691	0.29082158
54	0x3e87d6f7	0.26531193
55	0x3e8fc66d	0.28081074
56	0x3ecc0764	0.3984939
57	0xbe9ea0ac	-0.30981958
58	0x3d0d62f7	0.03451821
59	0x3eb8c2f9	0.36086252
60	0x3e8d2d2c	0.27573526
61	0xbe190cbf	-0.14946268
62	0x3e8edda3	0.2790347
63	0x3ecb66f5	0.39726987
